model/vad_stream.tflite (tflite, 34328 bytes, 12 tensors)

model/dense/MatMul i1 [1, 48] scale=0.003943225 zero_point=0
00000000: de9a ac09 98e4 07a2 1e47 e642 ca29 9b4a
00000010: a9d6 bc4f 89a3 11ef 0940 3143 55e5 c1ef
00000020: 3cdf dad7 b129 4ee1 8190 4c32 9b95 afc0
-0.13406965 -0.40220895 -0.33123088 0.035489023 -0.4100954 -0.110410295 0.027602574 -0.37066314
0.11829675 0.27996898 -0.10252385 0.26025283 -0.21293415 0.16167222 -0.39826572 0.29179865
-0.34306055 -0.16561544 -0.2681393 0.31151477 -0.46924376 -0.3667199 0.067034826 -0.067034826
0.035489023 0.2523664 0.19321802 0.26419607 0.3351741 -0.106467076 -0.24842317 -0.067034826
0.2365935 -0.13012642 -0.14984255 -0.16167222 -0.31151477 0.16167222 0.30757153 -0.12223997
-0.5007896 -0.44164118 0.2996851 0.19716124 -0.39826572 -0.42192507 -0.3194012 -0.2523664

model/conv2d_3/Conv2D i1 [48, 1, 1, 48]
00000000: 1d36 89b9 00eb dbf8 00aa e0e6 2cec c48e
00000010: ce43 69d3 c329 ee5d 86d1 edc2 cf71 2174
00000020: 7839 97a1 fd59 dc0d 92a4 137f e71b 68b8
00000030: 3dd3 aa34 9822 4049 69ad 3733 520d e603
00000040: 77e9 c5f9 d2c8 dbca cfe4 4719 4608 d2e0
00000050: 74f2 514b f6a3 ffe9 93f0 e37f 43c4 fbce
00000060: 2905 1bc8 e9f7 ff48 206d 273d 3bf8 580e
00000070: 6e3d 6dc8 bbda 0a05 fbbe b8cd bac4 69e9
00000080: f83f 37f3 b8e9 1581 b4ec b91b 00cc 39c7
00000090: 5399 79df fd29 b85b ee87 13e6 f3be e77e
000000a0: a817 e918 6848 63b4 e413 27bd 4941 d1e1
000000b0: 52a7 4812 7f1b c198 0f22 e837 46d1 d8d4
000000c0: e84d 3c25 2204 053f 1cba e2ea cbe9 b7ca
000000d0: 4bbd 191f 17b5 30de 42b0 100b 7f10 1902
000000e0: ecde 02e7 281a 23d9 1952 e32b 2b07 2016
000000f0: f246 fcf8 f46b e6bb 1252 2743 66bc 5d20
29 54 -119 -71 0 -21 -37 -8
0 -86 -32 -26 44 -20 -60 -114
-50 67 105 -45 -61 41 -18 93
-122 -47 -19 -62 -49 113 33 116
120 57 -105 -95 -3 89 -36 13
-110 -92 19 127 -25 27 104 -72
61 -45 -86 52 -104 34 64 73
105 -83 55 51 82 13 -26 3
119 -23 -59 -7 -46 -56 -37 -54
-49 -28 71 25 70 8 -46 -32
116 -14 81 75 -10 -93 -1 -23
-109 -16 -29 127 67 -60 -5 -50
41 5 27 -56 -23 -9 -1 72
32 109 39 61 59 -8 88 14
110 61 109 -56 -69 -38 10 5
-5 -66 -72 -51 -70 -60 105 -23
-8 63 55 -13 -72 -23 21 -127
-76 -20 -71 27 0 -52 57 -57
83 -103 121 -33 -3 41 -72 91
-18 -121 19 -26 -13 -66 -25 126
-88 23 -23 24 104 72 99 -76
-28 19 39 -67 73 65 -47 -31
82 -89 72 18 127 27 -63 -104
15 34 -24 55 70 -47 -40 -44
-24 77 60 37 34 4 5 63
28 -70 -30 -22 -53 -23 -73 -54
75 -67 25 31 23 -75 48 -34
66 -80 16 11 127 16 25 2
-20 -34 2 -25 40 26 35 -39
25 82 -29 43 43 7 32 22
-14 70 -4 -8 -12 107 -26 -69
18 82 39 67 102 -68 93 32

model/depthwise_conv2d_2/depthwise i1 [1, 13, 1, 48]
00000000: f670 a25a d07f d681 8181 8181 f681 a406
00000010: de95 eec3 3aaf 7968 7f7f 5675 7f5f b981
00000020: 81b2 5009 fd75 df7f 9425 b8a1 817f 9266
00000030: 8181 db2e fa39 f6fa b6df d741 c0fc d422
00000040: efcf 1d4f 7fd4 08c0 412c 3253 287f 981c
00000050: d181 2b94 b613 5d13 8304 29e6 a815 d475
00000060: 2ca0 2538 e51c 02e6 91eb 3224 8100 bd0e
00000070: d5a9 2411 2df7 7646 5a01 1d28 31aa bb08
00000080: c73e 3133 ec37 9f1c f31d f70f d61b f1f6
00000090: 5dfe ef69 f414 eeda fcf4 e0b7 9fe1 2815
000000a0: f304 0afe 24c9 528e 390f 3241 0fe6 37fd
000000b0: e2b8 cfb6 cbf8 310e a512 1cf5 aa04 2840
000000c0: 234f abe4 f0ff 5b02 0ffc c5e9 8c35 ab0b
000000d0: fb13 ef0f f509 ed68 101d 1f47 2fd3 cc18
000000e0: cdb0 c162 d1d5 3f1b b5f7 b9eb ea0f 1836
000000f0: eac7 1d1c 2315 7fe2 0218 3eec 8418 f125
-10 112 -94 90 -48 127 -42 -127
-127 -127 -127 -127 -10 -127 -92 6
-34 -107 -18 -61 58 -81 121 104
127 127 86 117 127 95 -71 -127
-127 -78 80 9 -3 117 -33 127
-108 37 -72 -95 -127 127 -110 102
-127 -127 -37 46 -6 57 -10 -6
-74 -33 -41 65 -64 -4 -44 34
-17 -49 29 79 127 -44 8 -64
65 44 50 83 40 127 -104 28
-47 -127 43 -108 -74 19 93 19
-125 4 41 -26 -88 21 -44 117
44 -96 37 56 -27 28 2 -26
-111 -21 50 36 -127 0 -67 14
-43 -87 36 17 45 -9 118 70
90 1 29 40 49 -86 -69 8
-57 62 49 51 -20 55 -97 28
-13 29 -9 15 -42 27 -15 -10
93 -2 -17 105 -12 20 -18 -38
-4 -12 -32 -73 -97 -31 40 21
-13 4 10 -2 36 -55 82 -114
57 15 50 65 15 -26 55 -3
-30 -72 -49 -74 -53 -8 49 14
-91 18 28 -11 -86 4 40 64
35 79 -85 -28 -16 -1 91 2
15 -4 -59 -23 -116 53 -85 11
-5 19 -17 15 -11 9 -19 104
16 29 31 71 47 -45 -52 24
-51 -80 -63 98 -47 -43 63 27
-75 -9 -71 -21 -22 15 24 54
-22 -57 29 28 35 21 127 -30
2 24 62 -20 -124 24 -15 37

model/conv2d_2/Conv2D i1 [48, 1, 1, 48]
00000000: af4b 5ddb 60e3 2118 a1dd 0613 b6a6 1037
00000010: 510f e5e2 eef3 9d44 0193 cb03 3d53 7f0c
00000020: cfa4 c619 3cce 190a 53b3 2ee0 1509 102c
00000030: f52f 9ddd e0f6 31da ec46 ba26 f2ff 4eb6
00000040: 33b8 9d38 4144 eb3b c00a d0da f117 c6ce
00000050: 05c7 b614 d2bc cc57 81e3 af54 f50e fcdc
00000060: 27d5 43c3 152d 1020 defc d6da 17de 4bb9
00000070: 27b8 c224 151a 205d fc06 f6bd 67fd 112e
00000080: 7ffe b19b cdbc 01a8 0738 5b2f 3cfd 46a9
00000090: 410b 30de 9439 e9b5 61df 2b48 4b9e 131d
000000a0: fadd cee8 81b0 0b6d 5233 ae1f adb7 ffec
000000b0: 280c 28fb 9cac 3b28 d442 0d51 fd0f 34d5
000000c0: a82b de05 5115 bc38 0baa 41d9 aa1b ec63
000000d0: 810f 8be9 dc9c c446 3313 fecd b4f3 73a8
000000e0: d8ee e015 2f1c f9ea 3a37 ca45 2546 ec2d
000000f0: ebf4 1d59 fcad 81d9 43ff e869 f89f 3756
-81 75 93 -37 96 -29 33 24
-95 -35 6 19 -74 -90 16 55
81 15 -27 -30 -18 -13 -99 68
1 -109 -53 3 61 83 127 12
-49 -92 -58 25 60 -50 25 10
83 -77 46 -32 21 9 16 44
-11 47 -99 -35 -32 -10 49 -38
-20 70 -70 38 -14 -1 78 -74
51 -72 -99 56 65 68 -21 59
-64 10 -48 -38 -15 23 -58 -50
5 -57 -74 20 -46 -68 -52 87
-127 -29 -81 84 -11 14 -4 -36
39 -43 67 -61 21 45 16 32
-34 -4 -42 -38 23 -34 75 -71
39 -72 -62 36 21 26 32 93
-4 6 -10 -67 103 -3 17 46
127 -2 -79 -101 -51 -68 1 -88
7 56 91 47 60 -3 70 -87
65 11 48 -34 -108 57 -23 -75
97 -33 43 72 75 -98 19 29
-6 -35 -50 -24 -127 -80 11 109
82 51 -82 31 -83 -73 -1 -20
40 12 40 -5 -100 -84 59 40
-44 66 13 81 -3 15 52 -43
-88 43 -34 5 81 21 -68 56
11 -86 65 -39 -86 27 -20 99
-127 15 -117 -23 -36 -100 -60 70
51 19 -2 -51 -76 -13 115 -88
-40 -18 -32 21 47 28 -7 -22
58 55 -54 69 37 70 -20 45
-21 -12 29 89 -4 -83 -127 -39
67 -1 -24 105 -8 -97 55 86

model/depthwise_conv2d_1/depthwise i1 [1, 8, 1, 48]
00000000: 7f7b df81 110a db68 81c5 7f8e 2dde 39e6
00000010: 81b6 9e4a 8181 3f81 b981 f266 7fa0 1081
00000020: 81dc 0d21 3c7f 377f f55f 5ece 7ff1 817f
00000030: 2473 c4c2 127f 4594 ad81 413e d1fa 8130
00000040: d402 cb43 08ef e6dc 35bd c91b 1ff8 11c9
00000050: 0b01 f7f5 68e8 e0c6 816c 6644 2deb f4d8
00000060: fe20 0bda e99a 7f9a ac21 356e e0e3 9edd
00000070: ddd2 d0a7 0bb7 fadd df11 2502 2fc6 08de
00000080: c100 470e 5ffe fe23 072e 2aeb 2518 da29
00000090: f43e c104 ef8f 1d81 e8c4 7281 f031 dac5
000000a0: cb10 0116 85ec afcc d9cb 45d3 3dce 10f6
000000b0: f1cd 6ed2 19e1 61a5 da7f f4e8 a47f 373a
000000c0: 1760 cfcc 0dd1 0499 c6d2 e99f 0f1d 8c25
000000d0: e50c c9c0 91e2 7fd4 050b dfc6 4137 fee4
000000e0: 35f2 59d2 6af2 3cdd 377e 203f dd60 d2dc
000000f0: 1555 20fd 21da d6d7 d3e8 e8f5 d243 c3b3
127 123 -33 -127 17 10 -37 104
-127 -59 127 -114 45 -34 57 -26
-127 -74 -98 74 -127 -127 63 -127
-71 -127 -14 102 127 -96 16 -127
-127 -36 13 33 60 127 55 127
-11 95 94 -50 127 -15 -127 127
36 115 -60 -62 18 127 69 -108
-83 -127 65 62 -47 -6 -127 48
-44 2 -53 67 8 -17 -26 -36
53 -67 -55 27 31 -8 17 -55
11 1 -9 -11 104 -24 -32 -58
-127 108 102 68 45 -21 -12 -40
-2 32 11 -38 -23 -102 127 -102
-84 33 53 110 -32 -29 -98 -35
-35 -46 -48 -89 11 -73 -6 -35
-33 17 37 2 47 -58 8 -34
-63 0 71 14 95 -2 -2 35
7 46 42 -21 37 24 -38 41
-12 62 -63 4 -17 -113 29 -127
-24 -60 114 -127 -16 49 -38 -59
-53 16 1 22 -123 -20 -81 -52
-39 -53 69 -45 61 -50 16 -10
-15 -51 110 -46 25 -31 97 -91
-38 127 -12 -24 -92 127 55 58
23 96 -49 -52 13 -47 4 -103
-58 -46 -23 -97 15 29 -116 37
-27 12 -55 -64 -111 -30 127 -44
5 11 -33 -58 65 55 -2 -28
53 -14 89 -46 106 -14 60 -35
55 126 32 63 -35 96 -46 -36
21 85 32 -3 33 -38 -42 -41
-45 -24 -24 -11 -46 67 -61 -77

model/conv2d_1/Conv2D i1 [48, 1, 1, 32]
00000000: 3bec 2a9a 2c0e 32ba 7310 1f0d c856 7ff5
00000010: 939e 2204 e5eb 063e 09c0 110a 6311 fb07
00000020: 0642 4f45 f144 32cc 187f 312e 091b 39b8
00000030: ad5f 2511 10e3 d0c0 e038 b65d c66c ae94
00000040: 4083 9fa7 48ff d57f 58ae 3da5 bf29 dc1c
00000050: 1a39 b031 cc09 0225 dff6 20be eb82 abe8
00000060: 242b f830 b857 16eb ce64 2c44 3eed cfd9
00000070: e51a 1ce3 23d4 e8ed f9c6 c621 2f1f e67f
00000080: e732 caf3 d613 7f0c 3f94 e531 abfe 5500
00000090: faf2 f52a f907 ba7a cbac 05b1 c3df 46ea
000000a0: 03b8 dd29 504e 150f 350b edee ec09 4381
000000b0: baef 2f01 fb2e 13b1 123d ce63 f9fe be33
000000c0: 20d9 14c7 814f 041a 1957 f369 d9b1 4772
000000d0: f61e ee57 63c0 3a5a d7fd 1335 ba32 6508
000000e0: 18b8 5231 01db 0b19 3834 c2e6 37bb d6f4
000000f0: b84f ff03 4e16 24b0 c6db 81c8 d9d9 303c
59 -20 42 -102 44 14 50 -70
115 16 31 13 -56 86 127 -11
-109 -98 34 4 -27 -21 6 62
9 -64 17 10 99 17 -5 7
6 66 79 69 -15 68 50 -52
24 127 49 46 9 27 57 -72
-83 95 37 17 16 -29 -48 -64
-32 56 -74 93 -58 108 -82 -108
64 -125 -97 -89 72 -1 -43 127
88 -82 61 -91 -65 41 -36 28
26 57 -80 49 -52 9 2 37
-33 -10 32 -66 -21 -126 -85 -24
36 43 -8 48 -72 87 22 -21
-50 100 44 68 62 -19 -49 -39
-27 26 28 -29 35 -44 -24 -19
-7 -58 -58 33 47 31 -26 127
-25 50 -54 -13 -42 19 127 12
63 -108 -27 49 -85 -2 85 0
-6 -14 -11 42 -7 7 -70 122
-53 -84 5 -79 -61 -33 70 -22
3 -72 -35 41 80 78 21 15
53 11 -19 -18 -20 9 67 -127
-70 -17 47 1 -5 46 19 -79
18 61 -50 99 -7 -2 -66 51
32 -39 20 -57 -127 79 4 26
25 87 -13 105 -39 -79 71 114
-10 30 -18 87 99 -64 58 90
-41 -3 19 53 -70 50 101 8
24 -72 82 49 1 -37 11 25
56 52 -62 -26 55 -69 -42 -12
-72 79 -1 3 78 22 36 -80
-58 -37 -127 -56 -39 -39 48 60

model/depthwise_conv2d/depthwise1 i1 [1, 5, 1, 32]
00000000: 44c2 9481 7fdc bb7f 7fbb 7fd4 8142 7f43
00000010: 5b81 940f 7fd5 817f f3ee 254d 7f1a 8116
00000020: 2fe9 cb02 1f81 005c 629b 16f7 c27f 322f
00000030: 21e4 a381 b695 818d a2c7 0246 ea7f bff6
00000040: 4c13 a6e1 2317 7f43 e7ce 484b 3247 eea7
00000050: 1b01 65e5 af23 4db1 897f 817f 294e 43a8
00000060: c9c6 a3cb 1fdb 146d 52aa db81 93b0 4181
00000070: 4dc1 c247 b863 62a4 f175 354e 0355 e3ab
00000080: 8181 81ce 6647 1164 7881 9cdb 8613 51ca
00000090: 7f98 7f79 ce7f 6207 8160 4770 d654 ef81
68 -62 -108 -127 127 -36 -69 127
127 -69 127 -44 -127 66 127 67
91 -127 -108 15 127 -43 -127 127
-13 -18 37 77 127 26 -127 22
47 -23 -53 2 31 -127 0 92
98 -101 22 -9 -62 127 50 47
33 -28 -93 -127 -74 -107 -127 -115
-94 -57 2 70 -22 127 -65 -10
76 19 -90 -31 35 23 127 67
-25 -50 72 75 50 71 -18 -89
27 1 101 -27 -81 35 77 -79
-119 127 -127 127 41 78 67 -88
-55 -58 -93 -53 31 -37 20 109
82 -86 -37 -127 -109 -80 65 -127
77 -63 -62 71 -72 99 98 -92
-15 117 53 78 3 85 -29 -85
-127 -127 -127 -50 102 71 17 100
120 -127 -100 -37 -122 19 81 -54
127 -104 127 121 -50 127 98 7
-127 96 71 112 -42 84 -17 -127

model/stream/conv2d/Conv2D i1 [32, 5, 1, 40]
00000000: c460 f7d5 13e4 2e24 6528 5614 eafb 3937
00000010: 3ced ccf4 df2c 5de0 c209 dc04 bbe0 e30f
00000020: 00d7 da24 12e3 d702 9b08 e3de be2b 2913
00000030: 3e20 e316 1d39 ee33 1329 41d4 36c3 3a2f
00000040: 1b09 1ded 19e6 ff14 0abd f6d7 fec5 d5c1
00000050: df65 bb07 41f2 1859 452b 1220 1141 0b2c
00000060: 3055 b91f 14d9 e005 dafd 1c22 f0c4 dadf
00000070: f70b e6ae ff32 e0ea 127f e722 0f24 0354
00000080: 0742 3e25 22ed 4d07 3d0c d135 db31 190f
00000090: d4dc ff48 0bfa c022 d104 1af6 da29 3dcf
000000a0: 2a69 061d dc0f f567 075d e959 c434 1aee
000000b0: f0f3 0d10 0340 f4fb 2446 222f bb1f cfe8
000000c0: dae0 c306 98f2 f3fd 01ff 25f8 d8e5 d3d9
000000d0: a0e2 f7e0 de26 d1f6 e5da a7ff c3cd 01fe
000000e0: 333a f51f 11dc 0ae7 06f0 1c0c f3ff e0f0
000000f0: f71f 1de2 e6ba 81d1 c4e7 0f0b f8d4 1ac7
-60 96 -9 -43 19 -28 46 36
101 40 86 20 -22 -5 57 55
60 -19 -52 -12 -33 44 93 -32
-62 9 -36 4 -69 -32 -29 15
0 -41 -38 36 18 -29 -41 2
-101 8 -29 -34 -66 43 41 19
62 32 -29 22 29 57 -18 51
19 41 65 -44 54 -61 58 47
27 9 29 -19 25 -26 -1 20
10 -67 -10 -41 -2 -59 -43 -63
-33 101 -69 7 65 -14 24 89
69 43 18 32 17 65 11 44
48 85 -71 31 20 -39 -32 5
-38 -3 28 34 -16 -60 -38 -33
-9 11 -26 -82 -1 50 -32 -22
18 127 -25 34 15 36 3 84
7 66 62 37 34 -19 77 7
61 12 -47 53 -37 49 25 15
-44 -36 -1 72 11 -6 -64 34
-47 4 26 -10 -38 41 61 -49
42 105 6 29 -36 15 -11 103
7 93 -23 89 -60 52 26 -18
-16 -13 13 16 3 64 -12 -5
36 70 34 47 -69 31 -49 -24
-38 -32 -61 6 -104 -14 -13 -3
1 -1 37 -8 -40 -27 -45 -39
-96 -30 -9 -32 -34 38 -47 -10
-27 -38 -89 -1 -61 -51 1 -2
51 58 -11 31 17 -36 10 -25
6 -16 28 12 -13 -1 -32 -16
-9 31 29 -30 -26 -70 -127 -47
-60 -25 15 11 -8 -44 26 -57

tfl.pseudo_qconst i1 [1, 12, 1, 48] scale=0.02933153 zero_point=-128
00000000: 8080 8080 8080 8080 8080 8080 8080 8080
00000010: 8080 8080 8080 8080 8080 8080 8080 8080
00000020: 8080 8080 8080 8080 8080 8080 8080 8080
00000030: 8080 8080 8080 8080 8080 8080 8080 8080
00000040: 8080 8080 8080 8080 8080 8080 8080 8080
00000050: 8080 8080 8080 8080 8080 8080 8080 8080
00000060: 8080 8080 8080 8080 8080 8080 8080 8080
00000070: 8080 8080 8080 8080 8080 8080 8080 8080
00000080: 8080 8080 8080 8080 8080 8080 8080 8080
00000090: 8080 8080 8080 8080 8080 8080 8080 8080
000000a0: 8080 8080 8080 8080 8080 8080 8080 8080
000000b0: 8080 8080 8080 8080 8080 8080 8080 8080
000000c0: 8080 8080 8080 8080 8080 8080 8080 8080
000000d0: 8080 8080 8080 8080 8080 8080 8080 8080
000000e0: 8080 8080 8080 8080 8080 8080 8080 8080
000000f0: 8080 8080 8080 8080 8080 8080 8080 8080
0.0 0.0 0.0 0.0 0.0 0.0 0.0 0.0
0.0 0.0 0.0 0.0 0.0 0.0 0.0 0.0
0.0 0.0 0.0 0.0 0.0 0.0 0.0 0.0
0.0 0.0 0.0 0.0 0.0 0.0 0.0 0.0
0.0 0.0 0.0 0.0 0.0 0.0 0.0 0.0
0.0 0.0 0.0 0.0 0.0 0.0 0.0 0.0
0.0 0.0 0.0 0.0 0.0 0.0 0.0 0.0
0.0 0.0 0.0 0.0 0.0 0.0 0.0 0.0
0.0 0.0 0.0 0.0 0.0 0.0 0.0 0.0
0.0 0.0 0.0 0.0 0.0 0.0 0.0 0.0
0.0 0.0 0.0 0.0 0.0 0.0 0.0 0.0
0.0 0.0 0.0 0.0 0.0 0.0 0.0 0.0
0.0 0.0 0.0 0.0 0.0 0.0 0.0 0.0
0.0 0.0 0.0 0.0 0.0 0.0 0.0 0.0
0.0 0.0 0.0 0.0 0.0 0.0 0.0 0.0
0.0 0.0 0.0 0.0 0.0 0.0 0.0 0.0
0.0 0.0 0.0 0.0 0.0 0.0 0.0 0.0
0.0 0.0 0.0 0.0 0.0 0.0 0.0 0.0
0.0 0.0 0.0 0.0 0.0 0.0 0.0 0.0
0.0 0.0 0.0 0.0 0.0 0.0 0.0 0.0
0.0 0.0 0.0 0.0 0.0 0.0 0.0 0.0
0.0 0.0 0.0 0.0 0.0 0.0 0.0 0.0
0.0 0.0 0.0 0.0 0.0 0.0 0.0 0.0
0.0 0.0 0.0 0.0 0.0 0.0 0.0 0.0
0.0 0.0 0.0 0.0 0.0 0.0 0.0 0.0
0.0 0.0 0.0 0.0 0.0 0.0 0.0 0.0
0.0 0.0 0.0 0.0 0.0 0.0 0.0 0.0
0.0 0.0 0.0 0.0 0.0 0.0 0.0 0.0
0.0 0.0 0.0 0.0 0.0 0.0 0.0 0.0
0.0 0.0 0.0 0.0 0.0 0.0 0.0 0.0
0.0 0.0 0.0 0.0 0.0 0.0 0.0 0.0
0.0 0.0 0.0 0.0 0.0 0.0 0.0 0.0

tfl.pseudo_qconst1 i1 [1, 7, 1, 48] scale=0.03236737 zero_point=-128
00000000: 8080 8080 8080 8080 8080 8080 8080 8080
00000010: 8080 8080 8080 8080 8080 8080 8080 8080
00000020: 8080 8080 8080 8080 8080 8080 8080 8080
00000030: 8080 8080 8080 8080 8080 8080 8080 8080
00000040: 8080 8080 8080 8080 8080 8080 8080 8080
00000050: 8080 8080 8080 8080 8080 8080 8080 8080
00000060: 8080 8080 8080 8080 8080 8080 8080 8080
00000070: 8080 8080 8080 8080 8080 8080 8080 8080
00000080: 8080 8080 8080 8080 8080 8080 8080 8080
00000090: 8080 8080 8080 8080 8080 8080 8080 8080
000000a0: 8080 8080 8080 8080 8080 8080 8080 8080
000000b0: 8080 8080 8080 8080 8080 8080 8080 8080
000000c0: 8080 8080 8080 8080 8080 8080 8080 8080
000000d0: 8080 8080 8080 8080 8080 8080 8080 8080
000000e0: 8080 8080 8080 8080 8080 8080 8080 8080
000000f0: 8080 8080 8080 8080 8080 8080 8080 8080
0.0 0.0 0.0 0.0 0.0 0.0 0.0 0.0
0.0 0.0 0.0 0.0 0.0 0.0 0.0 0.0
0.0 0.0 0.0 0.0 0.0 0.0 0.0 0.0
0.0 0.0 0.0 0.0 0.0 0.0 0.0 0.0
0.0 0.0 0.0 0.0 0.0 0.0 0.0 0.0
0.0 0.0 0.0 0.0 0.0 0.0 0.0 0.0
0.0 0.0 0.0 0.0 0.0 0.0 0.0 0.0
0.0 0.0 0.0 0.0 0.0 0.0 0.0 0.0
0.0 0.0 0.0 0.0 0.0 0.0 0.0 0.0
0.0 0.0 0.0 0.0 0.0 0.0 0.0 0.0
0.0 0.0 0.0 0.0 0.0 0.0 0.0 0.0
0.0 0.0 0.0 0.0 0.0 0.0 0.0 0.0
0.0 0.0 0.0 0.0 0.0 0.0 0.0 0.0
0.0 0.0 0.0 0.0 0.0 0.0 0.0 0.0
0.0 0.0 0.0 0.0 0.0 0.0 0.0 0.0
0.0 0.0 0.0 0.0 0.0 0.0 0.0 0.0
0.0 0.0 0.0 0.0 0.0 0.0 0.0 0.0
0.0 0.0 0.0 0.0 0.0 0.0 0.0 0.0
0.0 0.0 0.0 0.0 0.0 0.0 0.0 0.0
0.0 0.0 0.0 0.0 0.0 0.0 0.0 0.0
0.0 0.0 0.0 0.0 0.0 0.0 0.0 0.0
0.0 0.0 0.0 0.0 0.0 0.0 0.0 0.0
0.0 0.0 0.0 0.0 0.0 0.0 0.0 0.0
0.0 0.0 0.0 0.0 0.0 0.0 0.0 0.0
0.0 0.0 0.0 0.0 0.0 0.0 0.0 0.0
0.0 0.0 0.0 0.0 0.0 0.0 0.0 0.0
0.0 0.0 0.0 0.0 0.0 0.0 0.0 0.0
0.0 0.0 0.0 0.0 0.0 0.0 0.0 0.0
0.0 0.0 0.0 0.0 0.0 0.0 0.0 0.0
0.0 0.0 0.0 0.0 0.0 0.0 0.0 0.0
0.0 0.0 0.0 0.0 0.0 0.0 0.0 0.0
0.0 0.0 0.0 0.0 0.0 0.0 0.0 0.0

tfl.pseudo_qconst2 i1 [1, 4, 1, 32] scale=0.5268836 zero_point=-128
00000000: 8080 8080 8080 8080 8080 8080 8080 8080
00000010: 8080 8080 8080 8080 8080 8080 8080 8080
00000020: 8080 8080 8080 8080 8080 8080 8080 8080
00000030: 8080 8080 8080 8080 8080 8080 8080 8080
00000040: 8080 8080 8080 8080 8080 8080 8080 8080
00000050: 8080 8080 8080 8080 8080 8080 8080 8080
00000060: 8080 8080 8080 8080 8080 8080 8080 8080
00000070: 8080 8080 8080 8080 8080 8080 8080 8080
0.0 0.0 0.0 0.0 0.0 0.0 0.0 0.0
0.0 0.0 0.0 0.0 0.0 0.0 0.0 0.0
0.0 0.0 0.0 0.0 0.0 0.0 0.0 0.0
0.0 0.0 0.0 0.0 0.0 0.0 0.0 0.0
0.0 0.0 0.0 0.0 0.0 0.0 0.0 0.0
0.0 0.0 0.0 0.0 0.0 0.0 0.0 0.0
0.0 0.0 0.0 0.0 0.0 0.0 0.0 0.0
0.0 0.0 0.0 0.0 0.0 0.0 0.0 0.0
0.0 0.0 0.0 0.0 0.0 0.0 0.0 0.0
0.0 0.0 0.0 0.0 0.0 0.0 0.0 0.0
0.0 0.0 0.0 0.0 0.0 0.0 0.0 0.0
0.0 0.0 0.0 0.0 0.0 0.0 0.0 0.0
0.0 0.0 0.0 0.0 0.0 0.0 0.0 0.0
0.0 0.0 0.0 0.0 0.0 0.0 0.0 0.0
0.0 0.0 0.0 0.0 0.0 0.0 0.0 0.0
0.0 0.0 0.0 0.0 0.0 0.0 0.0 0.0

tfl.pseudo_qconst3 i1 [1, 2, 1, 40] scale=0.10217524 zero_point=-128
00000000: 8080 8080 8080 8080 8080 8080 8080 8080
00000010: 8080 8080 8080 8080 8080 8080 8080 8080
00000020: 8080 8080 8080 8080 8080 8080 8080 8080
00000030: 8080 8080 8080 8080 8080 8080 8080 8080
00000040: 8080 8080 8080 8080 8080 8080 8080 8080
0.0 0.0 0.0 0.0 0.0 0.0 0.0 0.0
0.0 0.0 0.0 0.0 0.0 0.0 0.0 0.0
0.0 0.0 0.0 0.0 0.0 0.0 0.0 0.0
0.0 0.0 0.0 0.0 0.0 0.0 0.0 0.0
0.0 0.0 0.0 0.0 0.0 0.0 0.0 0.0
0.0 0.0 0.0 0.0 0.0 0.0 0.0 0.0
0.0 0.0 0.0 0.0 0.0 0.0 0.0 0.0
0.0 0.0 0.0 0.0 0.0 0.0 0.0 0.0
0.0 0.0 0.0 0.0 0.0 0.0 0.0 0.0
0.0 0.0 0.0 0.0 0.0 0.0 0.0 0.0
